dev/synthetic_exp/data/train_weighted .npy (npy, 49184 bytes, 1 tensors)

array f8 [1533, 4]
00000000: 6a79 837f 7f33 0140 9792 1294 137b e7bf
00000010: 0000 0000 0000 0000 0000 0000 0000 f03f
00000020: 7e4c c701 eec0 0040 b862 9615 2030 c7bf
00000030: 0000 0000 0000 0000 0000 0000 0000 f03f
00000040: 88ad f6b0 13d0 e93f d6ad df08 f4da f0bf
00000050: 0000 0000 0000 0000 0000 0000 0000 f03f
00000060: 54b7 dfcc 6dc3 e73f 630b 5916 1651 f6bf
00000070: 0000 0000 0000 0000 0000 0000 0000 f03f
00000080: d37a 7c5a fc1e f93f 5ae7 938e 0693 e4bf
00000090: 0000 0000 0000 0000 0000 0000 0000 f03f
000000a0: 78f8 d53e 19eb f03f 202e 493e 4978 fdbf
000000b0: 0000 0000 0000 0000 0000 0000 0000 f03f
000000c0: 85ab ac48 5ced 0040 16be 0184 c741 dfbf
000000d0: 0000 0000 0000 0000 0000 0000 0000 f03f
000000e0: e81e d230 c1f3 e43f e27b 7abe ffb0 e0bf
000000f0: 0000 0000 0000 0000 0000 0000 0000 f03f
00000100: 800b 1397 02b5 fc3f 5896 b1df 31f3 c83f
00000110: 0000 0000 0000 0000 0000 0000 0000 f03f
00000120: 5c0b f7a5 c8a5 e43f 4b1f e990 c3f0 febf
00000130: 0000 0000 0000 0000 0000 0000 0000 f03f
00000140: dace 2fe8 b294 e73f 2093 1f26 abc7 edbf
00000150: 0000 0000 0000 0000 0000 0000 0000 f03f
00000160: 1984 61bf 7773 e63f 2c79 dcff 2197 fdbf
00000170: 0000 0000 0000 0000 0000 0000 0000 f03f
00000180: 3ac0 ad16 8f6f f63f f289 11ed 6898 fcbf
00000190: 0000 0000 0000 0000 0000 0000 0000 f03f
000001a0: 872b b94f d25e ed3f 7930 dd4f ac07 e2bf
000001b0: 0000 0000 0000 0000 0000 0000 0000 f03f
000001c0: 90e9 7cad a1a5 c2bf 4a7c 43a3 cd87 05c0
000001d0: 0000 0000 0000 0000 0000 0000 0000 f03f
000001e0: 336d f7ab e061 f63f 845d 10f8 7325 dfbf
000001f0: 0000 0000 0000 0000 0000 0000 0000 f03f
00000200: e6df 6f23 fe80 fc3f 1cf7 852b 95de da3f
00000210: 0000 0000 0000 0000 0000 0000 0000 f03f
00000220: f8a5 c134 8984 c6bf 3f73 d380 42fc f8bf
00000230: 0000 0000 0000 0000 0000 0000 0000 f03f
00000240: 637d 5696 6029 f33f 6069 95eb 2f88 c6bf
00000250: 0000 0000 0000 0000 0000 0000 0000 f03f
00000260: 9c23 4995 ff95 f73f bc3c ff1f f15f efbf
00000270: 0000 0000 0000 0000 0000 0000 0000 f03f
00000280: 128c f026 87ca dd3f b9ab f320 e5fe f2bf
00000290: 0000 0000 0000 0000 0000 0000 0000 f03f
000002a0: f610 66dc 3c33 ff3f f892 f828 c6ba e4bf
000002b0: 0000 0000 0000 0000 0000 0000 0000 f03f
000002c0: 4101 6b00 6462 e73f a858 d2a0 1ceb 05c0
000002d0: 0000 0000 0000 0000 0000 0000 0000 f03f
000002e0: 80cd 525e b091 ea3f 88a0 a75c f664 eebf
000002f0: 0000 0000 0000 0000 0000 0000 0000 f03f
00000300: d671 1df3 2eba e8bf 0ebf 86fa e731 03c0
00000310: 0000 0000 0000 0000 0000 0000 0000 f03f
00000320: 181d a12a bb24 c9bf 82ee 8855 e2e2 f2bf
00000330: 0000 0000 0000 0000 0000 0000 0000 f03f
00000340: 647b 16cf e48c d13f 4e36 2a6f 8e90 f3bf
00000350: 0000 0000 0000 0000 0000 0000 0000 f03f
00000360: 9ce4 abf8 f90e 0240 189a 3cb8 a2b0 c43f
00000370: 0000 0000 0000 0000 0000 0000 0000 f03f
00000380: 52e1 35a5 3530 e63f 68fc c7f9 42a1 f2bf
00000390: 0000 0000 0000 0000 0000 0000 0000 f03f
000003a0: ba9f 4d34 415e d63f 99c0 5f65 b011 f2bf
000003b0: 0000 0000 0000 0000 0000 0000 0000 f03f
000003c0: de00 5464 e9dc f53f d80b 1bf8 5cc6 ce3f
000003d0: 0000 0000 0000 0000 0000 0000 0000 f03f
000003e0: 9c67 2850 8468 ee3f 432a 0e2b a731 f0bf
000003f0: 0000 0000 0000 0000 0000 0000 0000 f03f
00000400: a241 88ae aadb ec3f 5e62 ebe1 21ec e9bf
00000410: 0000 0000 0000 0000 0000 0000 0000 f03f
00000420: ac12 3890 8d83 fd3f dfb2 7df6 2ddf e3bf
00000430: 0000 0000 0000 0000 0000 0000 0000 f03f
00000440: b3a9 7f74 4274 f13f 33e8 3112 2d9f f1bf
00000450: 0000 0000 0000 0000 0000 0000 0000 f03f
00000460: f6a5 5396 6329 e33f 8a42 208f dfe1 f5bf
00000470: 0000 0000 0000 0000 0000 0000 0000 f03f
00000480: 6a92 a6e6 0e57 e7bf 5c55 c8e7 0969 08c0
00000490: 0000 0000 0000 0000 0000 0000 0000 f03f
000004a0: 300c 8cbf 63f1 c3bf 92f8 6c98 a073 fdbf
000004b0: 0000 0000 0000 0000 0000 0000 0000 f03f
000004c0: 5c6f a7e0 6511 d4bf cdb1 e115 a7a8 01c0
000004d0: 0000 0000 0000 0000 0000 0000 0000 f03f
000004e0: 6383 b305 b752 f03f 7c2f 1ee7 e95d e7bf
000004f0: 0000 0000 0000 0000 0000 0000 0000 f03f
00000500: 4af9 036f 076e fe3f 0af5 b24e cb0e ebbf
00000510: 0000 0000 0000 0000 0000 0000 0000 f03f
00000520: 8877 bfe2 a3a7 e83f 5806 4e76 3551 f5bf
00000530: 0000 0000 0000 0000 0000 0000 0000 f03f
00000540: 389f 0e55 70ef 0240 50ef 06ec 66e3 b83f
00000550: 0000 0000 0000 0000 0000 0000 0000 f03f
00000560: fcda ec17 fe51 d33f 409b d54e 3aa0 e1bf
00000570: 0000 0000 0000 0000 0000 0000 0000 f03f
00000580: 247f 22d0 4816 f93f 8cb8 00a1 652d e5bf
00000590: 0000 0000 0000 0000 0000 0000 0000 f03f
000005a0: 2870 d6d7 0c2b d63f f95f 0869 c640 f9bf
000005b0: 0000 0000 0000 0000 0000 0000 0000 f03f
000005c0: 009a aea7 fefc a13f 4428 8a2e 16eb f2bf
000005d0: 0000 0000 0000 0000 0000 0000 0000 f03f
000005e0: e2c9 d91f 8309 ea3f 487f cbce cc22 ffbf
000005f0: 0000 0000 0000 0000 0000 0000 0000 f03f
00000600: b4c3 d0b1 a9d6 df3f c370 bf56 b5b0 f2bf
00000610: 0000 0000 0000 0000 0000 0000 0000 f03f
00000620: ee82 6dae 34f1 f83f 129f e0eb d7e9 debf
00000630: 0000 0000 0000 0000 0000 0000 0000 f03f
00000640: 6ec3 aa95 649e fe3f 1cc0 cd62 5622 cfbf
00000650: 0000 0000 0000 0000 0000 0000 0000 f03f
00000660: 8e68 134e da6e f03f b7a5 7db1 cd8c f4bf
00000670: 0000 0000 0000 0000 0000 0000 0000 f03f
00000680: 28b7 60b6 5ce5 f23f 95e8 8f4b 75e1 eebf
00000690: 0000 0000 0000 0000 0000 0000 0000 f03f
000006a0: 3832 7656 f164 cfbf cd97 7a72 d77b f6bf
000006b0: 0000 0000 0000 0000 0000 0000 0000 f03f
000006c0: 74e3 9fd8 4dd7 e0bf 3368 16b2 b70e fbbf
000006d0: 0000 0000 0000 0000 0000 0000 0000 f03f
000006e0: c069 f675 7fb8 a13f 96c7 f2f2 3fd5 f0bf
000006f0: 0000 0000 0000 0000 0000 0000 0000 f03f
00000700: 14df 1c9e 5e92 f73f 862c 50de 011d eabf
00000710: 0000 0000 0000 0000 0000 0000 0000 f03f
00000720: ddbd 6d12 9bac f53f a04b 80a6 baa6 c03f
00000730: 0000 0000 0000 0000 0000 0000 0000 f03f
00000740: af97 cd9d 314e f83f 8445 2bc8 f613 e9bf
00000750: 0000 0000 0000 0000 0000 0000 0000 f03f
00000760: a873 6007 554a d3bf c6e4 f596 8d2c f5bf
00000770: 0000 0000 0000 0000 0000 0000 0000 f03f
00000780: 2bab f322 ee69 0140 5fb7 85ed 7f28 ffbf
00000790: 0000 0000 0000 0000 0000 0000 0000 f03f
000007a0: 34c6 bbc3 6362 ed3f e8f4 9af5 23e0 c9bf
000007b0: 0000 0000 0000 0000 0000 0000 0000 f03f
000007c0: 0009 cab2 b698 b3bf f236 2713 1437 f0bf
000007d0: 0000 0000 0000 0000 0000 0000 0000 f03f
000007e0: 08d7 fe62 48c7 f1bf fc16 b251 77fc 03c0
000007f0: 0000 0000 0000 0000 0000 0000 0000 f03f
2.150145527076508 -0.7337739841501215 0.0 1.0 2.0942039622255484 -0.1811561684997025 0.0 1.0
0.8066500145263698 -1.053455385840484 0.0 1.0 0.7426060677951036 -1.3947964547121152 0.0 1.0
1.5700648817652805 -0.6429474625322016 0.0 1.0 1.0573971228145904 -1.8418667252580079 0.0 1.0
2.11589867379138 -0.4883898533944103 0.0 1.0 0.6547552064448299 -0.5216063232691079 0.0 1.0
1.794191923269608 0.19492171690505944 0.0 1.0 0.6452372781280746 -1.9337802563258772 0.0 1.0
0.7369017157456839 -0.9306236023518046 0.0 1.0 0.701595186034072 -1.8493976587847767 0.0 1.0
1.4022360692870408 -1.7872094402779308 0.0 1.0 0.9178248936744787 -0.563436656937042 0.0 1.0
-0.14567967387285963 -2.6913101916284505 0.0 1.0 1.3988959042970464 -0.4866609499453818 0.0 1.0
1.7814923652895174 0.41983536959001966 0.0 1.0 -0.17591967655179963 -1.561586859919046 0.0 1.0
1.1976018784115119 -0.17603110316378956 0.0 1.0 1.474120696208252 -0.980461657041722 0.0 1.0
0.465486324336042 -1.1872302329236233 0.0 1.0 1.9500092133831095 -0.6477995681967448 0.0 1.0
0.7307605751193834 -2.7398006977264977 0.0 1.0 0.830284294343457 -0.9498245057739192 0.0 1.0
-0.7727274654712868 -2.3993682453509626 0.0 1.0 -0.19643344480048408 -1.1803916302878013 0.0 1.0
0.2742244741765971 -1.2227920858744201 0.0 1.0 2.2573127200563032 0.16164049144681836 0.0 1.0
0.6933849550978641 -1.164370513637346 0.0 1.0 0.3495028506063097 -1.1293186149523875 0.0 1.0
1.3664335173671627 0.2404285632565848 0.0 1.0 0.9502584043104778 -1.0121223146294518 0.0 1.0
0.9018147858460461 -0.8100747501840251 0.0 1.0 1.8446174272113849 -0.6209935964849044 0.0 1.0
1.090883688996297 -1.1013613425007065 0.0 1.0 0.5988023696965559 -1.3676448431835149 0.0 1.0
-0.7293772225280695 -3.0512884243022835 0.0 1.0 -0.15580412724384152 -1.8407293275954868 0.0 1.0
-0.31356188715812094 -2.2073499402524477 0.0 1.0 1.0201940748886151 -0.7302140726110191 0.0 1.0
1.9018625580352642 -0.8455559289065218 0.0 1.0 0.770463888995196 -1.3323263760834347 0.0 1.0
2.3669134755217804 0.09721987974529367 0.0 1.0 0.30187942825743597 -0.5508090533956889 0.0 1.0
1.5679405336631556 -0.6617916245065927 0.0 1.0 0.34637757375617406 -1.5783142187920005 0.0 1.0
0.03513332173251982 -1.1823942010837678 0.0 1.0 0.8136611578068449 -1.9459961011816223 0.0 1.0
0.49747698178094457 -1.1681416882120608 0.0 1.0 1.5588881314835663 -0.48302267107872965 0.0 1.0
1.9136701437348296 -0.24323539566421537 0.0 1.0 1.0270636606060495 -1.2843758519396553 0.0 1.0
1.1809966205723388 -0.9650217510054683 0.0 1.0 -0.24526802751315002 -1.405234763320084 0.0 1.0
-0.5262822371433757 -1.6910931545776406 0.0 1.0 0.03461073222134159 -1.0520629396600945 0.0 1.0
1.4732347656517435 -0.8160409299902234 0.0 1.0 1.3546400756712196 0.13008816842974813 0.0 1.0
1.5190902866538456 -0.7836870107222897 0.0 1.0 -0.3014118740118712 -1.3233772179503815 0.0 1.0
2.17672374063604 -1.9473876264778125 0.0 1.0 0.9182604620857036 -0.2021527241940142 0.0 1.0
-0.0765489756104536 -1.0134468792124918 0.0 1.0 -1.11115301771264 -2.498274458167428 0.0 1.0
