dev/synthetic_exp/data/train_weighted .npy (npy, 45440 bytes, 1 tensors)

array f8 [1416, 4]
0	0x3fcd4945c1122ec8	0.22879859854980666
1	0xbff3a59b5355f8e9	-1.2279313330941994
2	0x0000000000000000	0.0
3	0x3ff0000000000000	1.0
4	0x3fe6e9b7941398f0	0.7160299198265232
5	0xbfc7cc326cd13380	-0.18591909707393128
6	0x0000000000000000	0.0
7	0x3ff0000000000000	1.0
8	0x400350f33da149cf	2.4145264448972976
9	0x3f97d65fd49be9c0	0.02327871070063181
10	0x0000000000000000	0.0
11	0x3ff0000000000000	1.0
12	0x3fd43bf09f9c2834	0.31615844332611975
13	0xc002c30a63df8e92	-2.34523466135017
14	0x0000000000000000	0.0
15	0x3ff0000000000000	1.0
16	0xbfecf31f72d9a80e	-0.9046780818146105
17	0xc00c250cb220b555	-3.5180906215888776
18	0x0000000000000000	0.0
19	0x3ff0000000000000	1.0
20	0x3fb04ed5bed76c48	0.0637029257699605
21	0xbfe4671490fd15f8	-0.6375830489930072
22	0x0000000000000000	0.0
23	0x3ff0000000000000	1.0
24	0x3ff5ea47e7a68186	1.3696974800915043
25	0xbfeb1c9b2ff276fd	-0.8472419678180071
26	0x0000000000000000	0.0
27	0x3ff0000000000000	1.0
28	0x3ff32a82fe939891	1.1978788322826726
29	0xbfcf0db8db160a68	-0.24260626504481597
30	0x0000000000000000	0.0
31	0x3ff0000000000000	1.0
32	0x3ff7fa70949535a9	1.4986425212876873
33	0xc00000f836c67bda	-2.0004734305689285
34	0x0000000000000000	0.0
35	0x3ff0000000000000	1.0
36	0x400356de38d89744	2.417416042432622
37	0x3fe37115a8a8cb60	0.6075542730453485
38	0x0000000000000000	0.0
39	0x3ff0000000000000	1.0
40	0x4000212d20b46be1	2.0161993556080096
41	0x3ff3169cdad5109c	1.1930206821571465
42	0x0000000000000000	0.0
43	0x3ff0000000000000	1.0
44	0x400412de617b363e	2.50921322018874
45	0xbfe2987fe9289a55	-0.5811156801108363
46	0x0000000000000000	0.0
47	0x3ff0000000000000	1.0
48	0x3fe42658d6d610cd	0.6296810337085162
49	0xbff057adacf6539c	-1.0214058643661934
50	0x0000000000000000	0.0
51	0x3ff0000000000000	1.0
52	0x4004d130af6c73ed	2.6021436409923724
53	0x3f8bb5028f2b3c00	0.013528842920463191
54	0x0000000000000000	0.0
55	0x3ff0000000000000	1.0
56	0xbfd3645545cc3500	-0.30299884620838213
57	0xbffc7b36b8ed3571	-1.7800814841933426
58	0x0000000000000000	0.0
59	0x3ff0000000000000	1.0
60	0x3fe0c1c79ebf6a02	0.5236547565976368
61	0xbff99da8b6d09f10	-1.6009909764488306
62	0x0000000000000000	0.0
63	0x3ff0000000000000	1.0
64	0x3fe530c6a9da1389	0.6622041051310684
65	0xbffc7999c9b180c6	-1.779687679161769
66	0x0000000000000000	0.0
67	0x3ff0000000000000	1.0
68	0x3fe6ac1f21484c50	0.7085109376952321
69	0xc0025808d6883090	-2.292985607176952
70	0x0000000000000000	0.0
71	0x3ff0000000000000	1.0
72	0xbfecbcf680946ece	-0.8980667601894881
73	0xbff37aa2ec717ee6	-1.217440532309348
74	0x0000000000000000	0.0
75	0x3ff0000000000000	1.0
76	0x3ff8266939a8acb0	1.5093776943493076
77	0xbfdb63e84efe8c6c	-0.4279728671483045
78	0x0000000000000000	0.0
79	0x3ff0000000000000	1.0
80	0x3fce874911e9a198	0.23850358366622681
81	0xbffe5af8091b7a1c	-1.8972092014079243
82	0x0000000000000000	0.0
83	0x3ff0000000000000	1.0
84	0x3fe05dd6d7a16d30	0.511454983857595
85	0xbff2fa78a26e4347	-1.186150202269532
86	0x0000000000000000	0.0
87	0x3ff0000000000000	1.0
88	0x3fc69d3a31f7cbd0	0.17667319717256058
89	0xbffa5680d06d97c2	-1.6461189405176673
90	0x0000000000000000	0.0
91	0x3ff0000000000000	1.0
92	0x3ffc686791de60d9	1.7754893968577135
93	0xbfe73065b0c6a2f3	-0.7246578648237957
94	0x0000000000000000	0.0
95	0x3ff0000000000000	1.0
96	0x3fe8e615ef6103fa	0.7780866313333938
97	0xbfea54711f61c6b9	-0.8228078473022925
98	0x0000000000000000	0.0
99	0x3ff0000000000000	1.0
100	0xbfcad6c64df58020	-0.20967940146056296
101	0xc0027fa5ec27d490	-2.31232819077065
102	0x0000000000000000	0.0
103	0x3ff0000000000000	1.0
104	0x3fdf1006d8f56248	0.4853531950698522
105	0xc0007945fc38adb6	-2.0592155175015376
106	0x0000000000000000	0.0
107	0x3ff0000000000000	1.0
108	0x3fee143ae52e7084	0.9399694896888069
109	0xbff0a81a7b0c5b8a	-1.0410408789227596
110	0x0000000000000000	0.0
111	0x3ff0000000000000	1.0
112	0x3fec26675018c1c5	0.8796879352940371
113	0xbff1f117054d4da0	-1.1213598448856388
114	0x0000000000000000	0.0
115	0x3ff0000000000000	1.0
116	0x3fe84717b6b82ba5	0.7586782997835725
117	0xc001ff26313c3b02	-2.2495845648294344
118	0x0000000000000000	0.0
119	0x3ff0000000000000	1.0
120	0x3ffddd604022d816	1.8665468697850023
121	0x3fb0e71881b8e330	0.0660262409882193
122	0x0000000000000000	0.0
123	0x3ff0000000000000	1.0
124	0x3ff5dc95015c6d78	1.3663530400434336
125	0xbfb4f47d00fca210	-0.08185559534161535
126	0x0000000000000000	0.0
127	0x3ff0000000000000	1.0
128	0x3fd6e2f28b4a4b60	0.357601772332762
129	0xbff3e215bdad0a2e	-1.242696515008571
130	0x0000000000000000	0.0
131	0x3ff0000000000000	1.0
132	0x3ff5cb9809f36435	1.362205542440518
133	0xbfb169a918225c60	-0.06801850165571599
134	0x0000000000000000	0.0
135	0x3ff0000000000000	1.0
136	0x3fff0fda7c78aba1	1.9413704740679594
137	0x3fd7051602846a60	0.35968542333436027
138	0x0000000000000000	0.0
139	0x3ff0000000000000	1.0
140	0x3ff816d9ba9ce4c0	1.5055787362637574
141	0xbff2c365d6b0acee	-1.172704542764048
142	0x0000000000000000	0.0
143	0x3ff0000000000000	1.0
144	0x3ff81124f5b1907c	1.5041856381804157
145	0xbfef0c2cfe030e14	-0.9702362977190568
146	0x0000000000000000	0.0
147	0x3ff0000000000000	1.0
148	0x3fe09103a36ae39e	0.5177019302128547
149	0xbff814be3e127b5c	-1.5050642418570623
150	0x0000000000000000	0.0
151	0x3ff0000000000000	1.0
152	0x3fd4b4422c449718	0.3235021049789437
153	0xbfe8b9a96b5aaac7	-0.7726637932549573
154	0x0000000000000000	0.0
155	0x3ff0000000000000	1.0
156	0x3ffd182366d09796	1.8183931366160997
157	0xbfe0bb1e95b3cbf3	-0.5228417323945663
158	0x0000000000000000	0.0
159	0x3ff0000000000000	1.0
160	0x3ff123bb4d103479	1.0712235460553343
161	0xbff69c11b2919c10	-1.4131028151839509
162	0x0000000000000000	0.0
163	0x3ff0000000000000	1.0
164	0xbfd0d48fe68780c8	-0.2629737616789609
165	0xbffbfe9cea345591	-1.7496613644228527
166	0x0000000000000000	0.0
167	0x3ff0000000000000	1.0
168	0xbff3a30bfef73a2c	-1.227306362113846
169	0xbffec26c3cd1215e	-1.9224665046368368
170	0x0000000000000000	0.0
171	0x3ff0000000000000	1.0
172	0x3ff90fcd83ab90f0	1.5663581031195086
173	0xbff530e01ddeff72	-1.3244324843253392
174	0x0000000000000000	0.0
175	0x3ff0000000000000	1.0
176	0x3fe204c00da49182	0.5630798593961546
177	0xc001958cc2559d57	-2.1980223829629426
178	0x0000000000000000	0.0
179	0x3ff0000000000000	1.0
180	0x3fe976d312771ad5	0.7957549439095951
181	0xbfe9c387950ff662	-0.8051183616041266
182	0x0000000000000000	0.0
183	0x3ff0000000000000	1.0
184	0x3ffc6bfc2ddd6dd0	1.7763635436630132
185	0xbfd5e3625e88847c	-0.3420034335304718
186	0x0000000000000000	0.0
187	0x3ff0000000000000	1.0
188	0x3febb355c7b64253	0.8656414890884413
189	0xbfc999330a192880	-0.19998777382926747
190	0x0000000000000000	0.0
191	0x3ff0000000000000	1.0
192	0x3fe8402b3885f8f4	0.7578331092807091
193	0xc0012aff1f550f12	-2.1459944198449046
194	0x0000000000000000	0.0
195	0x3ff0000000000000	1.0
196	0x3fec62308ae9c8f5	0.886986037554634
197	0xbfeb0a23846479a8	-0.8449876390257502
198	0x0000000000000000	0.0
199	0x3ff0000000000000	1.0
200	0xbfa369cc90858800	-0.037916557924077665
201	0xc003e8918738a87b	-2.488558823029107
202	0x0000000000000000	0.0
203	0x3ff0000000000000	1.0
204	0x3fe6e371ee10a134	0.7152642869669195
205	0xbfe14889e399c639	-0.540104813129978
206	0x0000000000000000	0.0
207	0x3ff0000000000000	1.0
208	0x3ff571f22eb6d33e	1.3403188538333803
209	0xbfe2425f151ad32e	-0.5706019794657544
210	0x0000000000000000	0.0
211	0x3ff0000000000000	1.0
212	0x3fd4a30d904029fa	0.32245196425415623
213	0x3fc58660116ea1d0	0.16816330767802734
214	0x0000000000000000	0.0
215	0x3ff0000000000000	1.0
216	0x3fe21f0f48fedc94	0.5662914682096862
217	0xbffd8763fb56e9d4	-1.8455543344449454
218	0x0000000000000000	0.0
219	0x3ff0000000000000	1.0
220	0x40045181c4d69c67	2.5397982957834304
221	0xbfd88d144d5ad214	-0.38361079744507376
222	0x0000000000000000	0.0
223	0x3ff0000000000000	1.0
224	0x3fc69910c7d86408	0.17654618986196646
225	0xc001a1beaba2e62b	-2.203976956280504
226	0x0000000000000000	0.0
227	0x3ff0000000000000	1.0
228	0x4000401ad912914a	2.031301208380829
229	0xbff6f53843900d5b	-1.4348681105774037
230	0x0000000000000000	0.0
231	0x3ff0000000000000	1.0
232	0x3fe2d15f367fbf7c	0.5880580963548563
233	0xbff91de1be63b28d	-1.5697953641021372
234	0x0000000000000000	0.0
235	0x3ff0000000000000	1.0
236	0x3fe660fa6345a05c	0.6993381441980193
237	0xbff7661542fe340c	-1.4624226204789492
238	0x0000000000000000	0.0
239	0x3ff0000000000000	1.0
240	0x3ff10d1799a8a58d	1.0656963350578252
241	0xbfcd7473e2041460	-0.23011635337767
242	0x0000000000000000	0.0
243	0x3ff0000000000000	1.0
244	0x3ff2708ba4b9dd7b	1.1524769243822834
245	0xbfec65521376d4b3	-0.8873682384643388
246	0x0000000000000000	0.0
247	0x3ff0000000000000	1.0
248	0x3ff3e5b0e08cfb03	1.2435768863212509
249	0xbff1f7efaf76a622	-1.1230313161889929
250	0x0000000000000000	0.0
251	0x3ff0000000000000	1.0
252	0x4001c7f7d1c2f674	2.222640646707811
253	0xbf91acf261467be0	-0.0172613021728657
254	0x0000000000000000	0.0
255	0x3ff0000000000000	1.0
